ChatBot/data.pth (torch, 5418 bytes, 6 tensors)

l1.weight f4 [8, 54]
00000000: 1e6d 66bd 0115 e8bc 8e4f 2c3f ca57 fe3d
00000010: fed1 d73e 2858 05bf 8eb9 073f 657c 0c3f
00000020: f52e 423f 1fd8 ee3e 9116 cd3e 4506 f43e
00000030: 35b9 3a3f 338d 323f 49e5 b43d cfa6 873e
00000040: 51b6 b03e 0a50 05bf 629d e23e 999f fa3e
00000050: 1ad2 23be 458c cb3e d22e fe3e da1e ad3e
00000060: 3c6e 4e3f 17ba 213e 6b55 323f dc87 313d
00000070: 8bba 9e3e c495 9abe 1554 a0be a599 2f3f
00000080: 065f d7bc 4093 2d3f 3a42 9b3e 883d e03e
00000090: c301 8c3e 0e02 273f 0332 0f3f 23b9 103f
000000a0: 5c7c f9be ec52 2b3f 25ba f43e eaec b6bd
000000b0: a0ac 293f e1cf 403e b5da f0be bfb5 93be
000000c0: ccfa c83e d382 143f 67c0 cb3e fc74 e53e
000000d0: 9f37 223f 7140 8f3e 08c4 ee3e e459 f03c
000000e0: 66f0 f1be f8e0 d03e 660d 063e b0ab 1d3f
000000f0: 2b6a a6be 2f5e c8be 2757 2ebf 4fd9 94be
00000100: c8e8 c03e 50c3 50be 4638 e3be b1e7 c3bd
00000110: f3a1 1fbe 90d9 babd 8ca4 e13e ffda 493f
00000120: 5261 52be 93f7 e93e 26cf bb3e 333b b43e
00000130: 1d2e 053f c44c b13e fff0 4fbe c423 d33e
00000140: f714 6abe 398e bcbe 6117 ccbd 5635 dbbe
00000150: b24c 093f 780d 93be d567 063f fa8b c6be
00000160: f312 9ebe e80a abbd de4c b8bd 7974 f9be
00000170: 7e5b 26be f46a d7bd fafd 163f 0bfb 5ebe
00000180: add5 91bd 369a 4cbe 3c13 36be 8e43 bebe
00000190: aac4 5d3f fc52 e73e 790a 013c 8b45 d6be
000001a0: 0b04 88bd 84b9 16be d8d5 75be 2ef5 883e
000001b0: e017 273d ee6e 1f3f da3f f4be 9984 75be
000001c0: ca08 d5be 9ebc 743f 36e1 1fbe 65ef 08bf
000001d0: d3ad 01be dbbe c7be ca09 67be f5bc 0d3f
000001e0: 4d93 903e 3d71 1d3f b667 c03e 18cc 9b3e
000001f0: 4810 80be a970 683f dc7f cbbd 7d99 f3be
00000200: 3611 96bc 33a3 f3be ca9a f3be c6d8 933c
00000210: a038 643e 6d9e 57be 7fcd 6fbe e9ac 173f
00000220: b681 713d f4f7 0a3f 45b0 c53e b315 fe3e
00000230: 7e2c a7be 8075 ccbe 3ce3 353f 5b1e 983e
00000240: 228f 703d a8af 62bd 6ee6 58bd 58b4 58be
00000250: 5ae1 dd3e f725 bfbe 3c9c d73e 7c66 be3e
00000260: 7079 6e3e abcc e73e 030e 993d baad 4abd
00000270: 7480 d6bc dcf6 89be c2a7 d63e 924e 78be
00000280: b602 d1bd caa5 f13d bc5d 0fbe a4ac 973e
00000290: 63e4 efbc c88b 963e 2856 163e 82a8 0e3f
000002a0: 3593 29be 5da8 75be 6eed 39be 2c38 bfbe
000002b0: b0cd b23e c472 023f a065 103d 2e4b c23e
000002c0: bbfc ba3e f0b7 7d3e 8974 453e 3204 313f
000002d0: 69f7 0abe 4bbf aa3e 32c2 81be d6ac c23e
000002e0: de94 923e 0046 183f 9251 2b3e fca5 aa3e
000002f0: 838e 90be 267f 2b3f 9c3e 0abe c4a2 203f
00000300: 52a3 163f 54ee fb3e c281 97be e969 88bd
00000310: 009b 143f 5f52 a73e e224 ccbd 0d3c a3be
00000320: bfa8 f4bd 796d 0bbe 6669 1b3f b96c a5be
00000330: 46cc 523e c918 a33e d55c d93e 1cdf da3e
00000340: 6cf8 1cbf 0e12 61be c56c 093e 9a17 c1be
00000350: 7937 ab3e c8b1 90be e901 20be 9c9d 553d
00000360: 5e97 adbe 08c9 1ebe 9c18 b23e 8be6 ae3e
00000370: 49d3 d23e c321 1f3f 386e e63d 5a12 ae3e
00000380: 0caa db3e 5f7d a33e e9d9 823e 6da2 033f
00000390: 0a32 3e3a 4c42 f73e a2b2 09bd fc6d f03e
000003a0: dac3 c73e a0a6 0d3f 96d5 3cbe 9e08 023f
000003b0: 0918 28be 0e46 033f 3f12 173f a733 2b3f
000003c0: b832 d73e 8721 963e 3e2e cdbe a954 1fbe
000003d0: 9005 79be 4624 12be b247 b93e 3702 013f
000003e0: c7e3 c8bc b60a a63e 5f42 86be ac47 ee3e
000003f0: bbac 35be 18d8 573e 1edc 3a3e 2588 453e
-0.056256406 -0.028330328 0.6730889 0.12419088 0.421524 -0.5208764 0.5301751 0.5487731
0.758529 0.46649262 0.4005628 0.47661033 0.72938854 0.697467 0.08832795 0.26494452
0.34514096 -0.52075255 0.442607 0.48949888 -0.15998116 0.39755455 0.49645096 0.338126
0.80636954 0.15793644 0.6966159 0.043342456 0.31001696 -0.30192387 -0.3131415 0.6859382
-0.026290428 0.6780281 0.30323964 0.43796945 0.27345094 0.6523751 0.55935687 0.56532496
-0.4872769 0.66923404 0.47798267 -0.089319065 0.6627903 0.188293 -0.4704186 -0.288496
0.39253843 0.5801212 0.3979523 0.44815814 0.6336612 0.27978852 0.46633935 0.029339738
-0.47253722 0.40796638 0.13091049 0.615901 -0.32502875 -0.39134356 -0.68101734 -0.29072043
0.37677598 -0.20387006 -0.4437887 -0.09565676 -0.15589122 -0.09123528 0.44070852 0.78849787
-0.20544937 0.45696697 0.3668148 0.35201415 0.5202349 0.3462888 -0.20306776 0.41238225
-0.2285956 -0.36827257 -0.09965397 -0.4281413 0.5363265 -0.28721213 0.52502185 -0.3877867
-0.30873832 -0.083516896 -0.08999036 -0.48721674 -0.16245839 -0.105184466 0.5898129 -0.21775453
-0.071208335 -0.19980702 -0.17780775 -0.37160915 0.8662821 0.451805 0.007876032 -0.41849932
-0.06641396 -0.14719206 -0.24007356 0.26749557 0.040794253 0.6227864 -0.47704965 -0.23976363
-0.41608268 0.95600307 -0.15613255 -0.5349029 -0.12663965 -0.390128 -0.22562328 0.5536645
0.28237382 0.6150091 0.37579125 0.3042915 -0.25012422 0.90796906 -0.099364966 -0.4757804
-0.018318754 -0.4758545 -0.47579032 0.018047702 0.22287226 -0.21056528 -0.23418234 0.59248215
0.058961593 0.54284596 0.38611045 0.4962593 -0.32651132 -0.39933395 0.7104986 0.2971066
0.058730252 -0.0553433 -0.05295413 -0.21162546 0.43335992 -0.37333652 0.42111385 0.37187564
0.23288512 0.45273337 0.07473376 -0.049482085 -0.026184298 -0.2694615 0.41924864 -0.24248722
-0.10205595 0.117992 -0.140006 0.29623902 -0.029283708 0.2940352 0.14681304 0.5572587
-0.16560061 -0.23990007 -0.18156978 -0.37347543 0.34922552 0.5095637 0.035253167 0.37947983
0.36520943 0.24777198 0.19282736 0.69147027 -0.13570942 0.3334907 -0.25343472 0.38022488
0.28629202 0.5948181 0.16730335 0.3332976 -0.28233728 0.6699089 -0.13500446 0.6274836
0.5884296 0.49205267 -0.29591185 -0.06660826 0.5804901 0.32680032 -0.09967972 -0.31881753
-0.11946248 -0.13615979 0.607077 -0.3230951 0.20585737 0.31854847 0.42453638 0.42748344
-0.6131656 -0.21979544 0.13420399 -0.3771332 0.3344076 -0.28260636 -0.15625729 0.05215226
-0.33904546 -0.15506375 0.347844 0.34160265 0.41176823 0.6216089 0.11251491 0.33998376
0.42903173 0.31931588 0.25556877 0.5141972 0.0007255381 0.48292768 -0.033617623 0.4695891
0.3901661 0.55332375 -0.18440852 0.507944 -0.16415419 0.5127877 0.59012216 0.6687569
0.42030883 0.29322454 -0.40074342 -0.15559639 -0.24318528 -0.1427165 0.36187512 0.50394005
-0.024522675 0.32430047 -0.26222512 0.46539056 -0.17741673 0.21078527 0.1824803 0.19290216

l1.bias f4 [8]
00000000: 4a4d 053f ab96 843f 8291 f33e 0ff7 1c3f
00000010: ec15 313f be88 3d3f 5ab9 133f 76af 23be
0.5207106 1.035848 0.4757195 0.6131448 0.69174075 0.74036777 0.577047 -0.15984902

l2.weight f4 [8, 8]
00000000: 1004 85bf c3d4 663f e63e 8d3f 0990 083f
00000010: b114 0cbf 33d4 10bf 6d4a 2e3f 4535 67be
00000020: 4052 143f e64f 103f 3d69 edbe 67fc 483f
00000030: e9d4 983f 5891 9c3f 834f 3ebf 2b68 593e
00000040: 9533 26bf cab9 933f 89ae b73d 6552 ccbe
00000050: 59c7 e73e 4b05 053f bea2 b63e 96da 113e
00000060: 41a3 dabd 5371 7c3f 9e81 ee3e 1952 a23f
00000070: 55aa 8a3f 1a87 9e3d ed49 91bf 3ae1 63bd
00000080: 8641 093f 4f5f 4f3f 9761 ae3e 9b49 64bf
00000090: d5cf 47bf 42bb 67bf df60 a43f ba06 0b3c
000000a0: 302b 623f 745d c0bd fd98 92bf ba51 90be
000000b0: d834 293f 0f21 ae3f f626 713f 70b8 763e
000000c0: 603f 823f 170a 63bf ea48 9e3f 5609 0f3f
000000d0: 3ab0 143f de13 4dbf 0abb 5b3f 7d96 813e
000000e0: 00c7 3cbe 4fa1 573e 7a55 23be 40b7 8abe
000000f0: 8b72 523e 1beb 9cbe 215a a9be 35a9 a73e
-1.0391865 0.901684 1.103482 0.5334478 -0.5471907 -0.5657379 0.68082315 -0.22578914
0.57938004 0.56371915 -0.46369353 0.78510135 1.1939975 1.2231855 -0.74340075 0.21231143
-0.6492246 1.1541073 0.08968837 -0.39906612 0.45269278 0.519612 0.35671037 0.1424354
-0.106756695 0.9861042 0.46583265 1.2681304 1.0833231 0.07740612 -1.1350685 -0.055634715
0.53615606 0.81004804 0.3405883 -0.89174813 -0.780515 -0.9052011 1.2842063 0.00848549
0.8834715 -0.09392825 -1.1452938 -0.28187352 0.6609626 1.3603839 0.94200075 0.24093795
1.017559 -0.8868727 1.2366002 0.5587362 0.580814 -0.8010844 0.85832274 0.25310126
-0.18435287 0.21057628 -0.15950575 -0.27092934 0.20551507 -0.3064812 -0.33076575 0.32746282

l2.bias f4 [8]
00000000: a957 063f 43f5 e63e 7519 073f e79e b43e
00000010: c1f4 573f 4f04 373f 8665 e33c 6852 85bd
0.5247751 0.45108995 0.5277322 0.35277483 0.8435784 0.7149095 0.027758371 -0.06509858

l3.weight f4 [7, 8]
00000000: 1975 4bbf d3ff d23e 463c 6cbf 477f 043f
00000010: 6e79 72bf 1d22 56bf ca62 3f3f d5b1 51bd
00000020: 2e3c 243f a62c 59bf c89e 5cbf 6155 bbbe
00000030: c752 833e ab31 30bf df95 483f 2220 b0be
00000040: 4cd1 983e c29a 1b3e 2d8b dc3e 7b55 303f
00000050: d475 c4be cebc 9ebf 41ee ecbb 0713 45be
00000060: f4af 85bf 4027 243f e3a2 8ebc cf16 213f
00000070: 5186 50bf 9e77 a23e ebf1 62bf 73b1 83bb
00000080: 7834 50bf 76b5 81bf d035 0abf 09d4 93bf
00000090: 1372 623f 9abd a73e ec0d fd3e 9691 bbbc
000000a0: 2f01 1abf 8679 de3e 23ba 42be 55e1 8dbf
000000b0: 0ec3 a0be 2a13 223f 366e 6a3e 7d4c 8cbe
000000c0: 45e5 0a3f c204 10bf 61bd 463f 5ead 3dbf
000000d0: 533d 353f d69b acbe 7ff3 02bf 2255 79bd
-0.7947555 0.41210803 -0.9227947 0.5175671 -0.94716537 -0.836458 0.74760115 -0.051194984
0.64154327 -0.84833753 -0.8617978 -0.36588576 0.25649092 -0.6882579 0.78353685 -0.34399515
0.2984718 0.15195754 0.43074933 0.6888043 -0.38371146 -1.2401369 -0.0072305505 -0.1924554
-1.0444322 0.6412239 -0.017411655 0.6292543 -0.8145495 0.31731886 -0.8865039 -0.0040189563
-0.8133006 -1.0133502 -0.5398836 -1.1549083 0.88455313 0.32761842 0.49424684 -0.02289657
-0.60158056 0.4345209 -0.19016318 -1.1084391 -0.31398815 0.6331049 0.22893605 -0.27402106
0.5425609 -0.5625726 0.7763272 -0.7409266 0.707967 -0.33712643 -0.51152796 -0.060872205

l3.bias f4 [7]
00000000: 6350 f6be 7258 15bd 94b7 fabd 6bc3 163c
00000010: c5b6 5abe 4a17 2fbd 5773 b33e
-0.48108205 -0.0364613 -0.12242046 0.009201865 -0.21358784 -0.04274682 0.35048935
